deploy/public/model.onnx (onnx, 302854 bytes, 12 tensors)

conv1.weight f4 [10, 3, 3, 3]
-0.15669684 0.19259155 0.13586645 0.0567342 -0.08507309 0.17271991 0.11910451 -0.06374907
-0.093227945 0.1500958 0.1301238 0.09449353 -0.08794354 0.12722611 0.10526603 0.046778467
0.14340194 -0.11037701 -0.10072664 -0.1031378 0.07946888 0.16357712 0.04270616 -0.07337221
-0.053419165 0.19865058 -0.0030227278 0.0680488 -0.09570044 0.010077139 -0.18549721 0.19399136
0.21518469 -0.22425438 0.14193885 -0.11242564 0.11308167 0.018516842 0.11231469 -0.19207041
-0.16861115 0.08890651 -0.2060535 0.013857424 0.22506346 0.008707692 -0.05837408 -0.03876553
0.14238095 0.14804915 -0.016358502 -0.17950898 0.14063811 0.22752011 -0.19924997 -0.20522161
-0.17529185 0.053906836 -0.11169805 -0.23824838 -0.110025495 -0.23509623 -0.15434207 -0.15904568
-0.2108348 0.06628766 0.13510358 -0.0030949363 -0.17720778 -0.18731487 -0.0074071437 -0.21839736
-0.06532373 0.029010497 -0.13870227 0.051196504 -0.13271914 -0.045309413 -0.11041538 -0.10802039
0.101128936 0.1667484 0.17974144 0.13373084 0.029209517 0.0964321 0.26374373 0.01671486
0.08276834 -0.08673087 -0.099797525 0.14028662 0.024032261 -0.05588426 -0.18902399 -0.0708479
-0.24705024 0.16098423 0.09405056 -0.18964015 -0.1037685 0.06010485 -0.22709185 -0.18936218
0.14501362 -0.19142064 -0.1844315 0.12043645 0.028143087 0.17989396 0.18802318 -0.09525804
0.07110001 0.22393385 -0.22179016 0.092591375 0.20353499 0.0047861 0.021720221 0.04347174
-0.20863138 -0.077836275 0.16258216 -0.14922081 0.05012241 0.16093074 -0.025987264 -0.08137529
0.09500795 -0.22760342 0.11546513 -0.019291757 -0.23222043 -0.15717797 0.07727676 -0.12503232
0.15658307 0.22064078 -0.104099646 -0.08775 -0.09565712 -0.1583201 0.14183465 0.18838777
-0.24179988 -0.12129802 0.25984487 0.008941954 -0.09266195 0.01713107 -0.09755164 -0.07698701
0.27002764 -0.16741478 0.105701625 -0.036039807 0.024506995 -0.034069944 0.18327105 -0.23777235
0.025927307 0.06552951 -0.25208166 -0.15463287 -0.25403425 0.041534115 0.019970866 -0.07014578
-0.15916717 -0.22203052 0.10764469 -0.2367126 -0.043934453 -0.22474444 -0.022312779 -0.019543625
-0.13837536 -0.2517844 -0.16484952 -0.20124084 -0.159291 -0.096015364 -0.14726748 -0.12015823
-0.17837057 0.065839484 0.08638911 -0.23517913 0.0010909133 0.26524892 0.17373677 -0.08083765
0.21592449 -0.06352155 -0.19932748 0.25399822 0.07362787 -0.16708082 0.16841003 0.11807322
0.06142635 -0.057558645 0.098773025 -0.03542015 0.07527529 -0.13620438 -0.16218589 -0.09306718
0.06939642 -0.23830262 -0.1014979 -0.036434866 -0.1671147 0.16722754 0.07699916 -0.24556589
0.22338402 0.10754876 -0.10988568 0.19289206 0.15711178 0.06057021 0.09909793 -0.018550357
-0.09044136 -0.04562707 -0.17322876 -0.169116 0.07630639 -0.18277533 -0.10227542 0.10052017
-0.007835253 -0.034268185 0.056299973 -0.06391793 0.043633584 0.051758017 -0.110619284 -0.18512507
-0.14837585 -0.060803775 0.11601762 -0.21864043 -0.094927855 -0.17877732 -0.11958485 -0.03813462
-0.17007181 0.035839967 -0.060322683 0.18675983 0.16197382 0.06687443 0.047509536 -0.081681594
00000000: 2375 20be b836 453e 9320 0b3e 1f62 683d
00000010: cd3a aebd 7ddd 303e 11ed f33d df8e 82bd
00000020: 4bee bebd b7b2 193e 2c3f 053e d385 c13d
00000030: be1b b4bd 9047 023e b795 d73d c79a 3f3d
00000040: f5d7 123e 580d e2bd c549 cebd e939 d3bd
00000050: 95c0 a23d c380 273e a8ec 2e3d 2b44 96bd
00000060: 0ece 5abd 0f6b 4b3e f518 46bb 2b5d 8b3d
00000070: 98fe c3bd 961a 253c fbf2 3dbe aca5 463e
00000080: 6059 5c3e f1a2 65be 6b58 113e 6a3f e6bd
00000090: 5d97 e73d a2b0 973c 3f05 e63d 1bae 44be
000000a0: 67a8 2cbe 9e14 b63d b0ff 52be 400a 633c
000000b0: 0977 663e b5aa 0e3c a919 6fbd 9bc8 1ebd
000000c0: 50cc 113e 329a 173e 4402 86bc 34d1 37be
000000d0: 7003 103e 08fb 683e 2f08 4cbe 9d25 52be
000000e0: b57f 33be 6acd 5c3d f2c1 e4bd 62f7 73be
000000f0: 0c55 e1bd 11bd 70be d90b 1ebe dfdc 22be
00000100: 14e5 57be d3c1 873d 9858 0a3e 6ad4 4abb
00000110: f575 35be 78cf 3fbe a0b7 f2bb 8fa3 5fbe
00000120: 73c8 85bd 6ca7 ed3c f807 0ebe 6db3 513d
00000130: 87e7 07be 5d96 39bd 7521 e2bd cb39 ddbd
00000140: b01c cf3d 18c0 2a3e 240e 383e bdf0 083e
00000150: cc48 ef3c 317e c53d 6b09 873e 9aed 883c
00000160: 7382 a93d f49f b1bd a562 ccbd 4ca7 0f3e
00000170: 4edf c43c e5e6 64bd 818f 41be b418 91bd
00000180: bdfa 7cbe 0dd9 243e 949d c03d 0731 42be
00000190: 9484 d4bd 8130 763d c48a 68be 29e8 41be
000001a0: 737e 143e c603 44be 9cdb 3cbe 63a7 f63d
000001b0: 558c e63c 1f36 383e 2689 403e a616 c3bd
000001c0: e29c 913d ea4e 653e f61c 63be 8ca0 bd3d
000001d0: 7a6b 503e b7d4 9c3b 9bee b13c 6c0f 323d
000001e0: 77a3 55be a068 9fbd f07b 263e 57cd 18be
000001f0: 284d 4d3d 07cb 243e 3ee3 d4bc 17a8 a6bd
00000200: 8793 c23d df10 69be fb78 ec3d bf09 9ebc
00000210: 31cb 6dbe 43f3 20be 4743 9e3d 7908 00be
00000220: 5057 203e a8ef 613e 3232 d5bd 46b6 b3bd
00000230: e1e7 c3bd aa1e 22be 1a3d 113e b9e8 403e
00000240: 639a 77be 196b f8bd 630a 853e 4681 123c
00000250: 8cc5 bdbd 7556 8c3c 27c9 c7bd 5eab 9dbd
00000260: 1041 8a3e c86e 2bbe 187a d83d 7a9e 13bd
00000270: e5c2 c83c ed8c 0bbd 68ab 3b3e 987a 73be
00000280: 8165 d43c 5634 863d d910 81be 1458 1ebe
00000290: c710 82be ad1f 2a3d f199 a33c 97a8 8fbd
000002a0: b8fc 22be f85b 63be d274 dc3d ca64 72be
000002b0: 9df4 33bd 6823 66be 4ac9 b6bc f419 a0bc
000002c0: 45b2 0dbe e3e9 80be 50ce 28be 1412 4ebe
000002d0: 2e1d 23be b4a3 c4bd 49cd 16be 8515 f6bd
000002e0: c6a6 36be dad6 863d c6ec b03d ccd2 70be
000002f0: fafc 8e3a b5ce 873e 0de8 313e 368e a5bd
00000300: 4f1b 5d3e 9617 82bd 811c 4cbe 0e0c 823e
00000310: 35ca 963d 3c17 2bbe ae73 2c3e 5fd0 f13d
00000320: 329a 7b3d 9dc2 6bbd 8349 ca3d b814 11bd
00000330: ee29 9a3d 2979 0bbe 0f14 26be 019a bebd
00000340: b61f 8e3d 9a05 74be 22de cfbd ba3c 15bd
00000350: 1e20 2bbe b23d 2b3e bcb1 9d3d a075 7bbe
00000360: c8be 643e 8642 dc3d be0b e1bd 7f85 453e
00000370: e9e1 203e 7818 783d dbf3 ca3d ebf6 97bc
00000380: 5239 b9bd 73e3 3abd e162 31be bf2c 2dbe
00000390: 8646 9c3d 7529 3bbe c775 d1bd 85dd cd3d
000003a0: 6f5f 00bc cc5c 0cbd cd9a 663d 67e7 82bd
000003b0: 21b9 323d 3700 543d 5d8c e2bd 6d91 3dbe
000003c0: d7ef 17be 610d 79bd a59a ed3d 47e3 5fbe
000003d0: 8969 c2bd 6711 37be e7e8 f4bd 0c33 1cbd
000003e0: 4e27 2ebe eecc 123d eb14 77bd f83d 3f3e
000003f0: 77dc 253e 76f5 883d 5c99 423d ae48 a7bd

conv1.bias f4 [10]
-0.26628512 -0.06468817 -0.18402496 0.094128 -0.16576637 -0.038644694 -0.117169686 -0.020539755
0.12871341 0.25981522
00000000: 8656 88be 3b7b 84bd 0a71 3cbe 2ec6 c03d
00000010: a9be 29be e649 1ebd a9f6 efbd fd42 a8bc
00000020: 73cd 033e 8006 853e

conv2.weight f4 [8, 10, 3, 3]
-0.0072845407 -0.07687402 0.015070685 -0.063547775 -0.08269591 -0.06816516 -0.08684876 -0.050201904
-0.050357725 -0.06391994 0.091468506 0.16006652 -0.07286654 -0.0006093305 0.058354568 -0.10746307
-0.02334219 0.13014089 -0.06262576 0.04974876 -0.12378815 0.042773098 -0.050843894 -0.073888086
-0.03271922 0.0154701 0.00015060947 0.18627599 0.32423124 0.29887107 0.06286455 0.35763544
0.33585587 0.10889262 0.30938682 0.25094926 -0.018237881 0.28690946 0.28544563 -0.0015816349
0.15690143 0.24576034 0.05352395 0.24241512 0.3728058 -0.008348899 0.4514441 0.32278165
-0.17052476 0.42390472 0.47040924 0.029594684 0.35473463 0.3959698 -0.042774577 0.08014669
-0.040085834 -0.08634098 0.09866304 -0.028580796 0.011739458 0.12188097 0.036800243 0.17421089
0.24464248 0.28961286 0.13579856 0.3651 0.29618385 0.1107199 0.395801 0.24606648
0.11333337 0.11973718 0.07948542 0.2244737 0.21440823 0.16348425 0.0663847 0.14137895
0.22962323 -0.12151025 -0.22281058 -0.24128614 -0.19324608 -0.24691498 -0.27860823 -0.15335763
-0.17235735 -0.28270727 0.0061188806 -0.09056279 -0.09624422 0.009356808 -0.08949821 -0.08871057
-0.008359752 -0.096938066 -0.020197395 0.119259626 0.03831312 -0.031110931 0.034983154 -0.00845988
0.019330932 0.017521705 0.092963174 0.099737756 0.06696614 0.03569766 0.030146446 0.025798105
0.15465885 0.1834262 0.07202211 0.15121634 0.118964955 -0.0022921918 0.0277268 0.12108817
-0.031606883 -0.0051912665 0.02432179 -0.004723373 0.08191361 0.13843432 0.10991762 0.113700956
0.2418122 0.21585138 0.10745776 0.20279512 0.0147581175 0.22960657 0.20975973 0.4332946
0.52226764 0.3581992 0.46347198 0.69646627 0.45575255 0.31218988 0.53570944 0.5262005
0.14708622 0.02997675 0.23343757 0.14071795 0.21710224 0.09867602 0.17073861 0.0747018
0.20749246 0.24965881 0.5190122 0.38080618 0.24877304 0.5338153 0.36423248 0.24393064
0.44537723 0.26060188 -0.008951896 0.04320355 0.093289115 0.050735068 0.12681112 0.05585241
-0.009063622 0.14774755 0.032038357 -0.16627142 -0.09262097 -0.06389464 -0.14825097 -0.1568226
0.011418959 -0.11402479 -0.0097204065 -0.04550668 0.093496166 0.064487725 0.17689155 0.007834035
0.09364149 0.12044386 0.014111146 0.1950873 0.057185292 0.16871646 0.263357 0.050125044
0.047672987 0.19924395 0.1449662 0.010139359 0.17079258 0.12970257 -0.078462236 -0.12515691
-0.06652264 -0.09710095 -0.021895766 -0.07977527 0.0019771736 -0.10354689 -0.09346975 0.12635992
0.13431656 0.013213547 0.042884562 0.07620074 -0.051128265 0.058885936 0.20624131 -0.044565506
0.1995524 0.26400074 0.17769092 0.21267384 0.2915208 0.24450675 0.118789874 0.37887982
0.2317244 0.29796073 0.56209445 0.40823504 0.330529 0.60333097 0.38963827 0.38357753
0.60830384 0.40176597 -0.0233129 -0.05999852 -0.10603144 0.056572434 -0.1078241 -0.076863274
-0.052574426 0.03164502 -0.0012160452 -0.0024997026 -0.0018139139 0.39043343 0.060103286 0.03269563
0.34295505 0.061439175 0.06825098 0.42438766 -0.09492574 -0.12369185 -0.1372728 -0.004083492
00000000: 28b3 eebb 2070 9dbd 09eb 763c 5625 82bd
00000010: 795c a9bd 2d9a 8bbd c3dd b1bd 83a0 4dbd
00000020: e743 4ebd 75e8 82bd d753 bb3d 7ae8 233e
00000030: 0d3b 95bd 7abb 1fba 3305 6f3d 9915 dcbd
00000040: 1f38 bfbc a743 053e ef41 80bd 5bc5 4b3d
00000050: a484 fdbd d832 2f3d b041 50bd a352 97bd
00000060: 9704 06bd 4d76 7d3c ecec 1d39 22bf 3e3e
00000070: a301 a63e a105 993e 21bf 803d fe1b b73e
00000080: 4df5 ab3e 1803 df3d f367 9e3e 6c7c 803e
00000090: 9c67 95bc cce5 923e ee25 923e dc4e cfba
000000a0: c5aa 203e 99a8 7b3e ee3b 5b3d ab3b 783e
000000b0: 67e0 be3e d2c9 08bc ae23 e73e a343 a53e
000000c0: 0b9e 2ebe 0a0a d93e 7bd9 f03e 8d70 f23c
000000d0: c79f b53e 8ebc ca3e 6534 2fbd f323 a43d
000000e0: 0b31 24bd 8ad3 b0bd d90f ca3d 4622 eabc
000000f0: db56 403c bb9c f93d dabb 163d 5764 323e
00000100: 8f83 7a3e 2348 943e c70e 0b3e 63ee ba3e
00000110: 69a5 973e 1dc1 e23d 6ea6 ca3e daf8 7b3e
00000120: 531b e83d c438 f53d 40c9 a23d 6fdc 653e
00000130: d58d 5b3e 6a68 273e b4f4 873d a5c5 103e
00000140: 5a22 6b3e 5eda f8bd 7528 64be b713 77be
00000150: 4de2 45be 48d7 7cbe bda5 8ebe c809 1dbe
00000160: 727e 30be 02bf 90be e480 c83b fc78 b9bd
00000170: b11b c5bd 4c4d 193c d64a b7bd e3ad b5bd
00000180: 57f7 08bc 7787 c6bd 0275 a5bc 643e f43d
00000190: 38ee 1c3d 5adc febc 7f4a 0f3d 4f9b 0abc
000001a0: e75b 9e3c ae89 8f3c 7a63 be3d 4f43 cc3d
000001b0: 8b25 893d b637 123d aef5 f63c 8c56 d33c
000001c0: e45e 1e3e 14d4 3b3e 5480 933d 75d8 1a3e
000001d0: e6a3 f33d 9938 16bb 5023 e33c 13fd f73d
000001e0: 3876 01bd 801b aabb 7e3e c73c 86c6 9abb
000001f0: 53c2 a73d bac1 0d3e 7d1c e13d 0cdc e83d
00000200: 9e9d 773e 2508 5d3e d012 dc3d 86a9 4f3e
00000210: 08cc 713c fc1d 6b3e 41cb 563e cad8 dd3e
00000220: 55b3 053f e365 b73e 334c ed3e 9d4b 323f
00000230: 6658 e93e 5ad7 9f3e 4124 093f 13b5 063f
00000240: c59d 163e cd91 f53c 420a 6f3e 5e18 103e
00000250: 0d50 5e3e a716 ca3d 1ad6 2e3e 42fd 983d
00000260: e778 543e 8fa6 7f3e fcdd 043f 07f9 c23e
00000270: 5cbe 7e3e 1fa8 083f ae7c ba3e f4c8 793e
00000280: 7c08 e43e 9c6d 853e f9aa 12bc 35f6 303d
00000290: 5d0e bf3d 93cf 4f3d c6da 013e 7fc5 643d
000002a0: 967f 14bc 224b 173e a73a 033d 0e43 2abe
000002b0: 10b0 bdbd 31db 82bd 1acf 17be 1b96 20be
000002c0: 9616 3b3c d485 e9bd 5742 1fbc 3665 3abd
000002d0: eb7a bf3d 2412 843d 0f23 353e 535a 003c
000002e0: 1cc7 bf3d 45ab f63d 7032 673c f7c4 473e
000002f0: 203b 6a3d 02c4 2c3e bbd6 863e eb4f 4d3d
00000300: c044 433d 9b06 4c3e 0572 143e 8e1f 263c
00000310: 40e4 2e3e c0d0 043e cfb0 a0bd 2229 00be
00000320: 063d 88bd dddc c6bd c05e b3bc 3761 a3bd
00000330: 7893 013b 6410 d4bd 116d bfbd 7f64 013e
00000340: 488a 093e a27d 583c b9a7 2f3d 220f 9c3d
00000350: df6b 51bd 6132 713d ec30 533e 528a 36bd
00000360: 7757 4c3e 1b2b 873e 9cf4 353e 2cc7 593e
00000370: 3742 953e fa5f 7a3e 1b48 f33d 89fc c13e
00000380: 2949 6d3e 4f8e 983e 6ce5 0f3f 2f04 d13e
00000390: 193b a93e e673 1a3f ab7e c73e 4664 c43e
000003a0: cdb9 1b3f 45b4 cd3e b2fa bebc 02c1 75bd
000003b0: 0327 d9bd 7fb8 673d e2d2 dcbd 7e6a 9dbd
000003c0: 4858 57bd 359e 013d b563 9fba 0dd2 23bb
000003d0: dac0 edba e4e6 c73e dd2e 763d daeb 053d
000003e0: ce97 af3e a5a7 7b3d 2bc7 8b3d 5749 d93e
000003f0: 6d68 c2bd 2752 fdbd 3e91 0cbe d0ce 85bb

conv2.bias f4 [8]
-0.029446008 -0.16388121 0.054392654 -0.03553819 -0.09420442 -0.032255728 -0.020820562 0.20420231
00000000: c138 f1bc 7ad0 27be d5ca 5e3d 7e90 11bd
00000010: 3fee c0bd 951e 04bd e28f aabc 691a 513e

conv3.weight f4 [3, 8, 3, 3]
0.2039941 -0.021633692 -0.17319103 0.17704807 -0.10425483 -0.11318809 0.17399114 0.0282795
-0.08900336 0.16690746 -0.044495303 0.006249568 0.1393186 -0.018882548 -0.14471872 0.1675561
0.01821326 -0.024931235 0.079612084 0.13146527 0.06858738 0.2886745 0.24100482 0.13950492
0.17078699 0.19798955 0.16374521 -0.034076605 -0.11250125 -0.20588829 0.028461326 -0.15964746
-0.25680894 -0.043700423 -0.1679206 -0.16246738 0.2795159 0.061587464 -0.03252787 0.09928314
0.0763421 -0.15322272 0.13180949 -0.025056189 -0.07354409 0.32404155 0.21327895 -0.011590502
0.3411491 0.14996326 0.06745287 0.2898399 0.08570333 0.007173082 -0.0005972566 -0.24525343
-0.091748476 -0.009690503 -0.09363264 -0.27969858 0.07162812 -0.17784522 -0.20604685 -0.35624707
-0.49574456 -0.2526988 -0.19894913 -0.53986377 -0.38450432 -0.11075013 -0.48184583 -0.26721922
0.104466386 0.2540287 0.09703757 0.23663454 0.24116024 0.22755635 0.30952054 0.19746418
0.22622138 -0.054992042 0.25199002 -0.016631627 0.25801662 0.19013795 0.19625047 0.18918905
0.15628998 0.032770213 -0.0789897 -0.040131133 -0.119643934 0.08313286 -0.017670969 -0.13964258
0.05186846 0.058738217 -0.039236005 0.064978056 0.32927525 0.17498924 0.34899202 0.43301815
0.2515199 0.21023718 0.3236003 0.28085598 0.06445179 0.19258687 0.097500846 0.15531617
0.14614922 0.1636199 0.14674746 0.2570007 0.1764467 -0.015310739 -0.054274853 0.06489422
0.066450715 -0.038071908 0.00589912 0.074938 0.0042609912 -0.124308705 0.24580619 0.2063121
0.27860355 0.098949276 0.4001651 0.32194737 0.3272757 0.3540718 0.14847954 -0.3501169
-0.29902562 -0.22280438 -0.39130396 -0.3351404 -0.19857417 -0.2866201 -0.2553414 -0.10031474
0.25248343 -0.024354968 -0.20981511 0.24913429 0.08242817 -0.052377623 0.22885536 0.0672645
-0.056200013 0.33113137 0.32228255 0.0445931 0.35805443 0.4503906 0.07073791 0.4322804
0.41673717 0.030508025 0.13298984 0.050164744 -0.21368341 0.23707296 0.17488544 -0.14232022
0.189951 0.12652592 -0.17871498 0.18031779 0.09502099 -0.110216856 0.11575545 0.13508144
-0.044894677 0.0959728 0.21065965 0.007967118 0.080845594 0.14247876 -0.1723131 0.33192274
0.31945294 -0.09769341 0.23585708 0.33571216 0.022555824 0.23969787 0.15981625 -0.23353463
0.1985223 0.12314774 -0.19354558 0.20414999 0.23726077 -0.121937886 0.2535414 0.051630504
-0.12657593 0.13338844 0.23737468 0.03635656 0.21374935 0.21481799 -0.12646678 0.040038493
-0.12224934 0.0029194553 -0.15540037 -0.12830971 -0.028447933 -0.13718206 -0.027155729 0.12463447
00000000: d4e3 503e 2439 b1bc fd58 31be 174c 353e
00000010: 8e83 d5bd 28cf e7bd bc2a 323e 69aa e73c
00000020: 6547 b6bd cae9 2a3e b540 36bd 2dc9 cc3b
00000030: 89a9 0e3e 93af 9abc 2531 14be d493 2b3e
00000040: fa33 953c 973c ccbc a90b a33d d59e 063e
00000050: 8a77 8c3d 25cd 933e f8c9 763e 61da 0e3e
00000060: c9e2 2e3e c6bd 4a3e d3ac 273e e993 0bbd
00000070: 0e67 e6bd 61d4 52be ba27 e93c a07a 23be
00000080: 767c 83be 37ff 32bd 61f3 2bbe d95d 26be
00000090: b51c 8f3e 2343 7c3d f23b 05bd f554 cb3d
000000a0: 3f59 9c3d 6be6 1cbe 11f9 063e a342 cdbc
000000b0: 499e 96bd c6e8 a53e cc65 5a3e 17e6 3dbc
000000c0: 18ab ae3e f88f 193e bb24 8a3d e565 943e
000000d0: 3a85 af3d 2c0c eb3b 3691 1cba b723 7bbe
000000e0: a0e6 bbbd eac4 1ebc 78c2 bfbd a734 8fbe
000000f0: c4b1 923d 0f1d 36be f2fd 52be 0466 b6be
00000100: 3bd2 fdbe bd61 81be 52b9 4bbe 8334 0abf
00000110: c0dd c4be f7d0 e2bd 7fb4 f6be f5d0 88be
00000120: 79f2 d53d 0d10 823e a2bb c63d 5350 723e
00000130: b6f2 763e 8804 693e 7a79 9e3e 0d34 4a3e
00000140: 94a6 673e 563f 61bd d604 813e 0d3f 88bc
00000150: c11a 843e 86b3 423e e2f5 483e c6ba 413e
00000160: 7b0a 203e 0f3a 063d 5ac5 a1bd 8b60 24bd
00000170: e107 f5bd 9041 aa3d b5c2 90bc 77fe 0ebe
00000180: 0674 543d 7c97 703d efb5 20bd 3713 853d
00000190: c496 a83e 6130 333e 15af b23e 8eb4 dd3e
000001a0: 37c7 803e 6a48 573e f0ae a53e 5bcc 8f3e
000001b0: 4dff 833d 7e35 453e 86ae c73d 340b 1f3e
000001c0: 24a8 153e fa8b 273e f744 163e 9995 833e
000001d0: 72ae 343e e5d9 7abc 4f4f 5ebd 43e7 843d
000001e0: 5017 883d 4af1 1bbd 684d c13b 1879 993d
000001f0: c99f 8b3b 9095 febd 9eb4 7b3e 7b43 533e
00000200: 20a5 8e3e eba5 ca3d 71e2 cc3e 49d6 a43e
00000210: ae90 a73e e648 b53e 050b 183e 8642 b3be
00000220: e319 99be d526 64be fe58 c8be 8697 abbe
00000230: 0757 4bbe dfbf 92be 1cbc 82be d071 cdbd
00000240: 8245 813e 1284 c7bc c6d9 56be 0f1d 7f3e
00000250: 1ad0 a83d eb89 56bd 0f59 6a3e f8c1 893d
00000260: fc31 66bd 0d8a a93e 3802 a53e 41a7 363d
00000270: e952 b73e 9999 e63e 0adf 903d db53 dd3e
00000280: 935e d53e f7eb f93c 7d2e 083e 8c79 4d3d
00000290: d3cf 5abe 41c3 723e 2b15 333e 64bc 11be
000002a0: 8482 423e 0390 013e 0f01 37be 3aa5 383e
000002b0: 5d9a c23d 60b9 e1bd 3211 ed3d ca52 0a3e
000002c0: 7be3 37bd 638d c43d 2ab7 573e 8488 023c
000002d0: 6092 a53d f4e5 113e d872 30be c7f1 a93e
000002e0: 568f a33e 7c13 c8bd 8584 713e 77e2 ab3e
000002f0: fec6 b83c 5c73 753e dfa6 233e b423 6fbe
00000300: 6e49 4b3e e234 fc3d d030 46be b20c 513e
00000310: 7df4 723e 92ba f9bd 2ed0 813e 827a 533d
00000320: 1f9d 01be fb96 083e 5912 733e 9eea 143d
00000330: 1ce1 5a3e 3ff9 5b3e 8280 01be 67ff 233d
00000340: dd5d fabd 5554 3f3b 4621 1fbe 9f63 03be
00000350: a40b e9bc 7479 0cbe b175 debc 5b40 ff3d

conv3.bias f4 [3]
0.18481667 -0.09101049 -0.23617509
00000000: 9540 3d3e b563 babd e2d7 71be

linear_stack.0.weight f4 [20, 3675]
-0.058015116 -0.005134693 -0.020228246 -0.050278865 0.00803189 0.00462319 -0.04785101 0.015012498
0.03477169 -0.09372454 -0.14779522 -0.08643613 -0.10129923 -0.09911128 -0.08681161 -0.15975042
-0.030830935 -0.0747436 -0.068098776 -0.01765334 -0.045514848 -0.0054463306 0.05116115 0.033561975
-0.008209155 -0.07465531 -0.0706662 0.0038413787 -0.10240157 -0.014523876 -0.009197189 -0.0406749
-0.0039649033 -0.037167113 -0.05430203 -0.05049036 -0.036079433 -0.037879005 -0.019730153 -0.0058488073
0.016411467 -0.045289725 0.042420615 0.013458743 -0.07149451 -0.071767844 0.009964233 -0.011910929
-0.053274315 -0.02217054 -0.10259983 0.0074522267 -0.031237423 -0.06651174 -0.0063239043 -0.055489402
-0.04342882 -0.020942478 -0.032753374 0.015319666 -0.06418466 -0.050450973 0.004575063 -0.06425357
-0.049080167 -0.0068253414 -0.040939324 -0.06465703 0.0023055328 0.00066063466 -0.03890393 -0.061146263
-0.021181637 -0.005951079 -0.0045581707 0.008283105 -0.108044825 0.075511135 0.025338167 -0.08302441
-0.04817893 -0.045396212 -0.07784687 -0.0906317 -0.03512227 -0.06392984 0.036321163 0.068733424
-0.02463227 -0.05098944 -0.11542982 -0.07216016 -0.023755468 -0.03747129 0.028115314 -0.004117704
-0.038567897 0.012605368 -0.09564434 -0.060010575 -0.009123547 -0.062524855 -0.07655929 -0.012952657
-0.058776855 -0.04140919 -0.042344563 -0.011205959 -0.06933839 0.014278374 -0.03078749 -0.053744763
0.033193357 -0.016295223 -0.08059185 -0.11387052 -0.080065414 -0.10015336 -0.12563136 -0.0558604
0.008246111 0.09690618 0.107410856 0.043369345 -0.07451133 -0.12857284 -0.056884103 -0.012343855
-0.048413165 0.021661963 0.0055171796 -0.061201192 0.037593093 -0.0699148 -0.059400674 -0.010885398
-0.07468135 -0.08482589 0.01130275 -0.01708678 -0.04777966 -0.03915007 -0.02485951 -0.056636937
-0.023384932 -0.006124496 -0.051103976 0.08025215 -0.014381365 -0.072215 -0.10051056 -0.08073002
-0.04935521 -0.09424198 -0.0049795173 -0.0005152388 0.08001838 0.09812373 0.09573339 -0.040788714
-0.10480314 -0.10032816 -0.026023692 -0.040836256 -0.024351852 0.034536134 -0.0031529984 -0.008273068
-0.041402392 -0.028655987 -0.020118475 -0.054682814 -0.05001677 0.004159122 -0.0026084187 -0.022061069
-0.045989305 -0.015086367 -0.025743242 -0.064559616 -0.033346858 -0.06627576 0.044261888 -0.042316925
-0.021542482 -0.13751833 -0.05974457 -0.028667206 -0.02859169 -0.001142565 -0.03693685 0.054071903
0.038669918 0.08679092 -0.048398755 -0.029422352 -0.080266155 -0.0069193337 -0.0457435 -0.045988623
0.019862538 -0.018971138 -0.053188145 -0.019503532 -0.031967353 -0.0036553028 -0.027058955 -0.009470442
-0.0063133305 0.04949726 0.014882254 -0.009642119 -0.04606493 -0.0035452766 -0.042413935 -0.012097081
-0.054795556 0.09414824 0.012434824 -0.0051326463 -0.070264585 -0.041422892 -0.07832341 -0.016094808
-0.017711243 0.025918987 0.08778879 0.07973038 0.039993998 -0.0080960365 -0.02347516 -0.10396653
0.043314934 -0.03643743 0.02932384 0.061135672 -0.017947137 -0.021529017 -0.030149704 -0.064943776
-0.022894872 -0.029364303 -0.029856913 0.010057177 0.051430892 -0.027659956 -0.02401008 -0.018242255
-0.0207621 -0.018781327 -0.053001303 -0.104048915 0.053830266 -0.025002996 0.019325221 -0.010222307
00000000: 42a1 6dbd ed40 a8bb b5b5 a5bc 36f1 4dbd
00000010: 3098 033c 217e 973b 6cff 43bd fbf6 753c
00000020: c26c 0e3d a7f2 bfbd a157 17be 6d05 b1bd
00000030: f875 cfbd dbfa cabd 49ca b1bd 9d95 23be
00000040: 2891 fcbc 2c13 99bd 5f77 8bbd bd9d 90bc
00000050: c76d 3abd 2277 b2bb 5b8e 513d 4878 093d
00000060: b17f 06bc e2e4 98bd 71b9 90bd a4bf 7b3b
00000070: eab7 d1bd 8df5 6dbc ceaf 16bc b99a 26bd
00000080: 05ec 81bb 8b3c 18bd ce6b 5ebd fbce 4ebd
00000090: 07c8 13bd 0427 1bbd 21a1 a1bc 5aa7 bfbb
000000a0: 5771 863c b881 39bd 3dc1 2d3d 0f82 5c3c
000000b0: b76b 92bd 05fb 92bd 0641 233c 0f26 43bc
000000c0: 2b36 5abd fe9e b5bc dc1f d2bd cf31 f43b
000000d0: a0e5 ffbc 4f37 88bd c138 cfbb db48 63bd
000000e0: 6be2 31bd 8f8f abbc 6728 06bd 56ff 7a3c
000000f0: 3f73 83bd aea5 4ebd 69ea 953b 6097 83bd
00000100: 4908 49bd 1da7 dfbb feaf 27bd e86a 84bd
00000110: 6c18 173b 712e 2d3a ba59 1fbd 8174 7abd
00000120: 1d85 adbc 4501 c3bb b55c 95bb dcb5 073c
00000130: 9b46 ddbd 95a5 9a3d fd91 cf3c b408 aabd
00000140: 4557 45bd 61f1 39bd 2e6e 9fbd 1d9d b9bd
00000150: 5fdc 0fbd a6ed 82bd 80c5 143d 1cc4 8c3d
00000160: 9dc9 c9bc 4eda 50bd 7866 ecbd b5c8 93bd
00000170: d49a c2bc 7f7b 19bd 1652 e63c ceed 86bb
00000180: 5ff9 1dbd bf86 4e3c 2ee1 c3bd a6cd 75bd
00000190: ee7a 15bc 080d 80bd 1ecb 9cbd 6237 54bc
000001a0: 00c0 70bd af9c 29bd 7e71 2dbd 3399 37bc
000001b0: 4901 8ebd d7ef 693c 0c36 fcbc 7823 5cbd
000001c0: c2f5 073d 8f7d 85bc 570d a5bd f234 e9bd
000001d0: 56f9 a3bd 341d cdbd 82a5 00be e0cd 64bd
000001e0: b21a 073c bf76 c63d 39fa db3d 0ea4 313d
000001f0: 6599 98bd 99a8 03be 4eff 68bd e13d 4abc
00000200: e24c 46bd 6e74 b13c 75c9 b43b 1aae 7abd
00000210: 37fb 193d 7e2f 8fbd 1f4e 73bd ab58 32bc
00000220: 89f2 98bd 32b9 adbd 2b2f 393c 93f9 8bbc
00000230: 9bb4 43bd d35b 20bd 2ca6 cbbc 22fc 67bd
00000240: c291 bfbc ffaf c8bb 6752 51bd 3d5b a43d
00000250: d19f 6bbc 75e5 93bd 7bd8 cdbd c855 a5bd
00000260: b028 4abd f001 c1bd 382b a3bb 1711 07ba
00000270: ade0 a33d 18f5 c83d de0f c43d 1112 27bd
00000280: 07a3 d6bd da78 cdbd a32f d5bc eb43 27bd
00000290: 897d c7bc c375 0d3d 89a2 4ebb c38b 07bc
000002a0: 8e95 29bd f6bf eabc 80cf a4bc 16fb 5fbd
000002b0: 62de 4cbd 3e49 883b 01f2 2abb 6ab9 b4bc
000002c0: 485f 3cbd cf2c 77bc 7ee3 d2bc d537 84bd
000002d0: b796 08bd 96bb 87bd f44b 353d 8354 2dbd
000002e0: dc79 b0bc 9bd1 0cbe b9b6 74bd 7dd7 eabc
000002f0: 1f39 eabc 1fc2 95ba 184b 17bd 807a 5d3d
00000300: 5964 1e3d 70bf b13d c63d 46bd 2507 f1bc
00000310: 9562 a4bd 94bb e2bb 895d 3bbd 915e 3cbd
00000320: c3b6 a23c 5c69 9bbc d0db 59bd dfc5 9fbc
00000330: 33f0 02bd ce8d 6fbb beaa ddbc ea29 1bbc
00000340: 0ee0 cebb a4bd 4a3d b3d4 733c faf9 1dbc
00000350: 94ae 3cbd df57 68bb 3cba 2dbd d632 46bc
00000360: 4e71 60bd cbd0 c03d 6fbb 4b3c c22f a8bb
00000370: e1e6 8fbd 0dab 29bd 0668 a0bd 42d9 83bc
00000380: 2b17 91bc 0e54 d43c 9cca b33d ae49 a33d
00000390: bfd0 233d 3da5 04bc fb4e c0bc 67ec d4bd
000003a0: 006b 313d 6a3f 15bd 8d38 f03c 6669 7a3d
000003b0: e005 93bc 9f5d b0bc 83fc f6bc 3e01 85bd
000003c0: 078e bbbc 688d f0bc 7c96 f4bc dcc6 243c
000003d0: 33a9 523d 2297 e2bc cab0 c4bc c870 95bc
000003e0: 4815 aabc 4cdb 99bc e517 59bd 9917 d5bd
000003f0: 207d 5c3d 15d3 ccbc ed4f 9e3c 777b 27bc

linear_stack.0.bias f4 [20]
0.022440063 -0.012801456 0.0022754627 -0.052346025 -0.054186985 -0.012692462 0.027148407 0.058488354
0.033732507 -0.045093194 0.05468466 -0.0139672365 -0.028666893 -0.03446201 0.05295577 0.041358404
0.035730436 -0.0076403865 -0.13090815 -0.022276014
00000000: 39d4 b73c 33bd 51bc ee1f 153b c968 56bd
00000010: 2cf3 5dbd 0bf4 4fbc 5666 de3c 7c91 6f3d
00000020: 192b 0a3d a4b3 38bd 06fd 5f3d d6d6 64bc
00000030: d5d6 eabc 0928 0dbd 26e8 583d 6e67 293d
00000040: 145a 123d 355c fabb c90c 06be 307c b6bc

linear_stack.2.weight f4 [10, 20]
0.16378446 0.26019242 0.25537416 -0.15517692 0.110515304 0.2923282 0.018783618 -0.2305464
-0.34586653 -0.08797224 0.15540342 -0.21905047 -0.12001086 0.14532764 0.26331407 -0.03209207
0.18842448 -0.11988311 -0.41161165 0.09760913 0.2541932 -0.33885318 0.14865781 0.0004913648
-0.03596953 0.033071883 0.013274937 0.15171584 0.07762945 -0.002232634 -0.076218046 0.32235757
-0.06043515 -0.03117699 0.23731825 -0.21953946 -0.16405447 -0.27099496 0.1027842 -0.050837073
0.09149058 0.17417824 0.16818778 -0.06685875 0.0020097324 0.025305668 -0.06255815 -0.33638766
0.34004885 -0.0050773406 -0.067570865 -0.14111304 0.1642311 -0.23733932 -0.0034182463 -0.036114722
0.048247814 0.04567769 -0.2137857 -0.110389404 -0.04902406 -0.07816239 -0.30319497 -0.1497497
0.18996832 -0.22346652 -0.20906007 0.10119256 -0.1694741 0.11116384 -0.22485887 -0.32328495
0.0033541576 0.23194398 -0.2445851 0.1283401 -0.03087008 -0.20705916 0.1316264 0.24483867
-0.07722723 0.022835182 0.2816224 0.007511524 -0.048464045 0.2514188 -0.23921745 -0.29269052
-0.21869104 -0.086903736 -0.022909218 0.04944515 -0.03065287 0.2422869 0.28641373 0.0877611
0.02105059 -0.000100377576 0.08353924 -0.21484682 -0.11435061 -0.022694323 0.015058596 0.2340143
-0.115578495 0.08277645 -0.05161492 -0.12049417 -0.22830932 0.21253593 -0.27542597 0.21989076
-0.2350673 -0.114226975 0.20612453 -0.2342905 0.23076919 0.04243961 -0.15315738 -0.15067345
-0.009165467 -0.1460038 0.1501322 0.21630405 0.124107264 0.06809527 0.13215311 -0.11967308
-0.01638899 -0.26084664 -0.19497189 0.3051625 -0.3044916 -0.107072674 -0.1035102 -0.16620627
0.1403942 0.12152079 -0.18499684 0.2250149 0.02771268 -0.33634531 -0.40426338 0.22716345
-0.043114934 -0.06294455 0.23412143 0.027052013 0.1007688 0.06852119 -0.19538501 -0.24529976
0.5159705 0.028847443 -0.26222187 0.08672067 0.18793859 -0.27437028 0.20737799 -0.28663814
-0.09121018 0.048545543 0.19568215 -0.08030192 -0.23220985 0.14698091 -0.062808506 0.14547434
-0.10451166 -0.30321646 0.11974545 0.3025349 -0.08490421 -0.3136496 -0.19699214 0.08949635
0.19975942 -0.03577274 -0.044601988 0.01990152 -0.21091168 -0.25609666 -0.37934938 0.19011426
-0.12725678 -0.3190002 -0.011284894 -0.13199095 0.23924513 0.15418918 -0.0904864 -0.10540269
0.33398977 0.18258694 0.22625238 -0.017264033 0.09407717 0.040754642 0.1512222 -0.052681107
00000000: 1db7 273e f137 853e 67c0 823e b3e6 1ebe
00000010: d955 e23d 0bac 953e 1ae0 993c 5b14 6cbe
00000020: 6b15 b1be ca2a b4bd 1322 1f3e c44e 60be
00000030: 41c8 f5bd c5d0 143e 1ad1 863e f972 03bd
00000040: 59f2 403e 4785 f5bd c3be d2be 4ce7 c73d
00000050: 9c25 823e 2a7e adbe c139 183e efce 003a
00000060: c954 13bd 6276 073d 1f7f 593c 665b 1b3e
00000070: 30fc 9e3d 6251 12bb 3518 9cbd 0d0c a53e
00000080: d98a 77bd e366 ffbc 8e03 733e f4ce 60be
00000090: e5fd 27be dabf 8abe 8680 d23d 893a 50bd
000000a0: 6a5f bb3d c85b 323e 6b39 2c3e 3eed 88bd
000000b0: b7b5 033b d54d cf3c 7d1e 80bd 013b acbe
000000c0: e21a ae3e d25f a6bb 9862 8abd f07f 10be
000000d0: 332c 283e 1409 73be a804 60bb 08ed 13bd
000000e0: 809f 453d 8818 3b3d a3ea 5abe d713 e2bd
000000f0: 74cd 48bd 9a13 a0bd 5f3c 9bbe fc57 19be
00000100: 0e87 423e 68d4 64be d813 56be 0b3e cf3d
00000110: 9e8a 2dbe dea9 e33d 6741 66be 9b85 a5be
00000120: 6dd1 5b3b b982 6d3e 8474 7abe 966b 033e
00000130: 40e3 fcbc 5107 54be 12c9 063e fdb6 7a3e
00000140: 4f29 9ebd d910 bb3c d030 903e 3b23 f63b
00000150: 3c82 46bd f7b9 803e 6bf5 74be 88db 95be
00000160: 8bf0 5fbe 96fa b1bd 1dac bbbc ff86 4a3d
00000170: ba1b fbbc 0f1a 783e d2a4 923e 17bc b33d
00000180: 4972 ac3c cd81 d2b8 9f16 ab3d ce00 5cbe
00000190: a730 eabd 72e9 b9bc 54b8 763c 72a1 6f3e
000001a0: 6bb4 ecbd b386 a93d 2b6a 53bd a6c5 f6bd
000001b0: ebc9 69be 05a3 593e a204 8dbe 0b2b 613e
000001c0: 7bb5 70be d5ef e9bd 4f12 533e d9e9 6fbe
000001d0: c24e 6c3e 28d5 2d3d 4ad5 1cbe 244a 1abe
000001e0: c12a 16bc 0582 15be 41bc 193e cf7e 5d3e
000001f0: f32b fe3d 8875 8b3d 2553 073e 2917 f5bd
00000200: 3442 86bc b18d 85be b6a6 47be 423e 9c3e
00000210: 53e6 9bbe eb48 dbbd 28fd d3bd fa31 2abe
00000220: 7fc3 0f3e e4df f83d d06f 3dbe 4e6a 663e
00000230: b405 e33c 7435 acbe 9cfb cebe 899d 683e
00000240: 4999 30bd 12e9 80bd 87bd 6f3e 2f9c dd3c
00000250: df5f ce3d d654 8c3d 0213 48be dc2f 7bbe
00000260: a516 043f 7951 ec3c f241 86be 9b9a b13d
00000270: f972 403e 437a 8cbe e55a 543e 3cc2 92be
00000280: 67cc babd b1d7 463d e760 483e 5575 a4bd
00000290: 6bc8 6dbe 2a82 163e bfa1 80bd 3af7 143e
000002a0: 360a d6bd 303f 9bbe 1a3d f53d dbe5 9a3e
000002b0: 42e2 adbd ae96 a0be 4fb8 49be dd49 b73d
000002c0: bc8d 4c3e 7086 12bd 93b0 36bd 8308 a33c
000002d0: 3bf9 57be 1a1f 83be 153a c2be 50ad 423e
000002e0: 9a4f 02be ff53 a3be 47e4 38bc a328 07be
000002f0: adfc 743e c5e3 1d3e ef50 b9bd 5edd d7bd
00000300: b500 ab3e 12f8 3a3e b4ae 673e 4d6d 8dbc
00000310: 88ab c03d 57ee 263d fed9 1a3e 25c8 57bd

linear_stack.2.bias f4 [10]
-0.02880276 -0.049890198 -0.056655575 0.036057092 -0.044640064 0.049801484 0.08736097 -0.015301538
0.27749744 -0.07479974
00000000: c4f3 ebbc aa59 4cbd ad0f 68bd 9ab0 133d
00000010: 80d8 36bd a4fc 4b3d 4fea b23d 4db3 7abc
00000020: 2514 8e3e 9b30 99bd

linear_stack.4.weight f4 [3, 10]
-0.17512251 -0.44288355 -0.13582058 -0.28594106 0.21756926 -0.51182336 0.33514675 0.39294565
0.38762292 0.13000432 0.22354183 -0.24515487 0.39707366 0.23586562 -0.5050797 -0.08976255
-0.57601583 0.095906265 -0.32019478 -0.35506865 0.3922583 0.29699975 -0.270011 -0.43372512
0.27543002 0.24444748 0.32260498 -0.44888514 0.120289505 -0.31737113
00000000: 5153 33be a2c1 e2be 8d14 0bbe de66 92be
00000010: 7aca 5e3e db06 03bf 5b98 ab3e 2c30 c93e
00000020: 8376 c63e da1f 053e 26e8 643e e109 7bbe
00000030: 3d4d cb3e c286 713e e74c 01bf 6ed5 b7bd
00000040: c675 13bf 816a c43d 92f0 a3be 8fcb b5be
00000050: 14d6 c83e 5a10 983e e23e 8abe 3811 debe
00000060: 2a05 8d3e 7150 7a3e 7b2c a53e 46d4 e5be
00000070: 585a f63d 787e a2be

linear_stack.4.bias f4 [3]
-0.118587784 -0.1704503 0.18630813
00000000: 27de f2bd 868a 2ebe 8fc7 3e3e
